…
Feature Shape:     50
Sequence 1
-----------------------
DNA Sequence #1:
 CCGAGGGCTA ... CGCGGACACC
One hot encoding of Sequence #1:
 [[0. 0. 0. ... 1. 0. 0.]
 [1. 1. 0. ... 0. 1. 1.]
 [0. 0. 1. ... 0. 0. 0.]
 [0. 0. 0. ... 0. 0. 0.]]
Labels:
 [['0' '0' '0' ... '0' '1' '1']]
One-hot encoded labels:
 [[1. 1. 1. ... 1. 0. 0.]
 [0. 0. 0. ... 0. 1. 1.]]
Model: "sequential"
_________________________________________________________________
Layer (type)                 Output Shape              Param #   
=================================================================
conv1d (Conv1D)              (None, 39, 32)            1568      
_________________________________________________________________
max_pooling1d (MaxPooling1D) (None, 9, 32)             0         
_________________________________________________________________
lstm (LSTM)                  (None, 50)                16600     
_________________________________________________________________
flatten (Flatten)            (None, 50)                0         
_________________________________________________________________
dense (Dense)                (None, 16)                816       
_________________________________________________________________
dense_1 (Dense)              (None, 2)                 34        
=================================================================
Total params: 19,018
Trainable params: 19,018
Non-trainable params: 0
_________________________________________________________________
binary_accuracy: 99.80%
